…
Layer (type)                    Output Shape         Param #     Connected to                     
==================================================================================================
input1 (InputLayer)             [(None, 2048)]       0                                            
__________________________________________________________________________________________________
input2 (InputLayer)             [(None, 300)]        0                                            
__________________________________________________________________________________________________
v1_encoder_0 (Dense)            (None, 500)          1024500     input1[0][0]                     
__________________________________________________________________________________________________
v2_encoder_0 (Dense)            (None, 500)          150500      input2[0][0]                     
__________________________________________________________________________________________________
v1_encoder_1 (Dense)            (None, 500)          250500      v1_encoder_0[0][0]               
__________________________________________________________________________________________________
v2_encoder_1 (Dense)            (None, 500)          250500      v2_encoder_0[0][0]               
__________________________________________________________________________________________________
v1_encoder_2 (Dense)            (None, 2000)         1002000     v1_encoder_1[0][0]               
__________________________________________________________________________________________________
v2_encoder_2 (Dense)            (None, 2000)         1002000     v2_encoder_1[0][0]               
__________________________________________________________________________________________________
embedding1 (Dense)              (None, 10)           20010       v1_encoder_2[0][0]               
__________________________________________________________________________________________________
embedding2 (Dense)              (None, 10)           20010       v2_encoder_2[0][0]               
__________________________________________________________________________________________________
v1_decoder_3 (Dense)            (None, 2000)         22000       embedding1[0][0]                 
__________________________________________________________________________________________________
v2_decoder_3 (Dense)            (None, 2000)         22000       embedding2[0][0]                 
__________________________________________________________________________________________________
v1_decoder_2 (Dense)            (None, 500)          1000500     v1_decoder_3[0][0]               
__________________________________________________________________________________________________
v2_decoder_2 (Dense)            (None, 500)          1000500     v2_decoder_3[0][0]               
__________________________________________________________________________________________________
v1_decoder_1 (Dense)            (None, 500)          250500      v1_decoder_2[0][0]               
__________________________________________________________________________________________________
v2_decoder_1 (Dense)            (None, 500)          250500      v2_decoder_2[0][0]               
__________________________________________________________________________________________________
v1_decoder_0 (Dense)            (None, 2048)         1026048     v1_decoder_1[0][0]               
__________________________________________________________________________________________________
v2_decoder_0 (Dense)            (None, 300)          150300      v2_decoder_1[0][0]               
__________________________________________________________________________________________________
tf_op_layer_concat (TensorFlowO [(None, 20)]         0           embedding1[0][0]                 
                                                                 embedding2[0][0]                 
__________________________________________________________________________________________________
clustering1 (ClusteringLayer)   (None, 13)           130         embedding1[0][0]                 
__________________________________________________________________________________________________
model (Model)                   (None, 1)            1180673     v1_decoder_0[0][0]               
__________________________________________________________________________________________________
clustering2 (ClusteringLayer)   (None, 13)           130         embedding2[0][0]                 
__________________________________________________________________________________________________
model_1 (Model)                 (None, 1)            285697      v2_decoder_0[0][0]               
__________________________________________________________________________________________________
rcclustering (RCLayer_softmax)  (None, 13)           260         tf_op_layer_concat[0][0]         
==================================================================================================
Total params: 8,909,258
Trainable params: 7,442,888
Non-trainable params: 1,466,370
__________________________________________________________________________________________________
Time for pretraining: 0s
Begin clustering: ------------------------------------------------------------
…
